outputs/model-vanishing-grad.pth (torch, 737050 bytes, 31 tensors)

resnet_layers.0.weight f4 [64, 3, 7, 7]
00000000: ebb5 2abc 350d c9bb ff35 edba 7546 993d
00000010: f9e4 673d 55f2 8b3c 02fa 4fbc 3d94 353c
00000020: 8a19 1c3c 5d21 e1bd c99d 8fbe a6df 8abe
00000030: 362c 04be 8c42 753b 0b85 e3bb 4707 723d
00000040: 7249 973e 7a52 163f 4c0c 053f ee3c 833e
00000050: 5232 823d b4e4 f93c be40 89bd 60c9 98be
00000060: 1a9a e0be 3aad 8abe 84a5 20ba 12f0 6b3d
00000070: 9a90 e1bc fb70 833c adac 943d b099 5dbd
00000080: 3e6b aabe af55 d7be 4e00 84be 36c7 fa3c
00000090: 68c5 273d 54b7 803d 10b5 743e d4e2 d33e
000000a0: 8784 c93e 390b 2a3e 800d 61bc d3d0 70bb
000000b0: 8f4c c5bc 90ea 86bd f650 1abe 1168 a8bd
000000c0: 717d bdbb 81bb 3abc 3d10 dabc 8fe3 0dbd
000000d0: d8c7 163d 6134 053d 1698 2d3a ffe3 d2bc
000000e0: e121 3b3d c3a3 093d 7312 d6bd ee21 9ebe
000000f0: b103 a0be df5b 24be d71b a8ba 0f7e 5bba
00000100: 6790 c93d ace0 cd3e 6c35 453f 2438 353f
00000110: aedc bc3e 0e16 ff3d 4a74 bfbb f2b3 03be
00000120: b466 d7be 19bb 17bf b604 c4be 75b2 2dbd
00000130: 842e 7c3d 6f12 65bd 4d2d abbb f9d7 dd3c
00000140: 9039 1bbe 9a6e ecbe 2720 12bf b525 bbbe
00000150: a798 063d 00a2 633d 8e1f cc3d 30e4 a23e
00000160: 8cde 0b3f 8c2c f73e 6271 4b3e 9fd6 ad3b
00000170: c357 db3b ea58 8dbc 41f6 8ebd 03c8 17be
00000180: 7434 9ebd 2639 3d3a f222 05bb cf1a 16bc
00000190: 7dbf ad3c a0d1 b73d 41a2 b63d 3dda 093d
000001a0: 08ac a4bc ba48 7c3c b6c3 98bc e9ed 00be
000001b0: 584f 97be 58c0 81be 16ea 04be 7e2c e5bc
000001c0: cf4e 213c 56e5 483d 8933 5e3e d335 dc3e
000001d0: 238b b23e 24ac d53d 5fd6 963c dc7b d83c
000001e0: eae8 d4bc 87b6 49be 2d3f 89be 4f88 d7bd
000001f0: 10ed a03d 2258 f73d 0b4b e8bc 7dc4 963c
00000200: 7c07 ca3d 6cd8 7a3d 586f f0bd 90e4 83be
00000210: 1037 1ebe 361e aa3c 7544 2cbb e1ed 1abd
00000220: 2c51 6b3d b134 773e af4a 793e ad93 f13d
00000230: 93c7 433a 78a0 4b3a ffa9 24bc 9de7 61bd
00000240: 9c37 18be f4b6 f0bd ae14 1dbd 79af 90bb
00000250: 492f 85bb 9905 4f3b 4450 b4bb 11a9 17bd
00000260: a417 cebc e061 44bd e52a 523d 0ebc 5a3d
00000270: 70bb a43d 4fae eb3d 6b46 143e 0a4d 123e
00000280: cd28 fc3d 4c4f f0bb 5293 0e3b e8ed 193d
00000290: c026 5e3d 97f9 7b3d f780 a43d abed ef3d
000002a0: b4c0 70bd 2c5c a0bd 6f23 5ebd f31f c0bd
000002b0: 9ec3 efbd 89b4 8bbd aa64 b13c b02a dbbc
000002c0: 7bd9 fbbd 05ce 0bbe 3f05 1dbe 840e 10be
000002d0: 8176 e4bd e7fa 4abd c7b4 c03c 4da0 8dbc
000002e0: bb3a 36bc 482c 02bc 0138 9abc 8f08 bfbc
000002f0: 8572 f1bc a704 eb3c c76d b13c 8f26 443d
00000300: 6777 323d b2e0 d03c aac6 103d 07cf 383c
00000310: 3bfd f539 9b1b 473c bc2c 2c3d 266e 743d
00000320: d010 3e3d 7792 253d 6391 6cbc a006 323d
00000330: c3db 8c3d 24dc 073e 5e7e 5e3e 5276 923e
00000340: 23c1 893e 9c5f 563e ef03 6cbd 187b b9bc
00000350: a73d fa3c 938d 9a3d 31ee 0c3e 6b58 293e
00000360: 80c5 373e ce26 1abe e42b 39be 8c70 26be
00000370: 69c0 4dbe a4ee 36be 606d c9bd 50da 893c
00000380: 5185 ddbd 0a2a 81be b447 98be 2ef9 a4be
00000390: 4bef 91be 6917 5cbe a359 d3bd a5be 263d
000003a0: 773a 06bd 54f2 81bd 65a8 a8bd 6027 bdbd
000003b0: 001b 8fbd f725 4cbd 90dd a93d e35c b33d
000003c0: 3c15 cf3d 2c84 9f3d 14eb 573d c7b9 793d
000003d0: 23bf 283d de45 86bc 9d3f 63bc 160c ad3b
000003e0: 2a5b 373d aafc 323d 0305 ba3c dc58 3cbd
000003f0: 18ff 073d 6816 2c3d ad7c bf3d a92c 3e3e
-0.010419349 -0.0061356076 -0.0018097757 0.07484142 0.05661485 0.017083326 -0.012693884 0.011082706
0.009527573 -0.10992692 -0.28050068 -0.27123755 -0.1290749 0.0037423698 -0.00694335 0.05908897
0.29548222 0.587196 0.5197189 0.25632423 0.06357254 0.030504562 -0.06701802 -0.29841137
-0.4386757 -0.27085286 -0.00061281794 0.057601996 -0.027534772 0.016045084 0.07259498 -0.054101646
-0.33284944 -0.4205756 -0.25781482 0.03061257 0.040959746 0.06284967 0.23897195 0.41383994
0.39358923 0.16605844 -0.013736129 -0.0036745563 -0.024084358 -0.06587708 -0.15069947 -0.08222974
-0.005782776 -0.0113972435 -0.026619071 -0.034640845 0.03681168 0.032520656 0.0006622089 -0.025743483
0.045686606 0.03360344 -0.10452738 -0.3088526 -0.31252816 -0.16050671 -0.001282568 -0.0008372971
0.09841996 0.40210474 0.7703464 0.7078879 0.36887115 0.124553785 -0.00584272 -0.12861612
-0.42070544 -0.59269863 -0.38284844 -0.042406518 0.0615678 -0.055925783 -0.005223906 0.027080523
-0.15158677 -0.46178132 -0.5708031 -0.36552206 0.032860424 0.055574417 0.09966956 0.31814718
0.54636455 0.48276174 0.19867471 0.005305126 0.0066938116 -0.017254312 -0.06980563 -0.14822392
-0.077248484 0.00072182936 -0.0020315018 -0.009161665 0.021209473 0.0897553 0.08917666 0.033655394
-0.020101562 0.015398199 -0.01864801 -0.12590756 -0.29552722 -0.2534206 -0.12979922 -0.027975317
0.00984545 0.049046837 0.21699347 0.43009815 0.34871778 0.10433224 0.018412767 0.026426248
-0.025989968 -0.19698535 -0.26806012 -0.10524046 0.07857716 0.12077357 -0.028356096 0.01840424
0.09864709 0.061241552 -0.11739987 -0.25760317 -0.15450692 0.020766359 -0.002628592 -0.037824515
0.05745046 0.24141194 0.24344896 0.11795745 0.00074683985 0.0007767747 -0.010050296 -0.055152524
-0.14864963 -0.117536455 -0.0383498 -0.004415449 -0.0040644747 0.003158903 -0.0055027325 -0.03702647
-0.025157757 -0.047944903 0.05131044 0.053402 0.08043563 0.11507856 0.14479987 0.142872
0.1231247 -0.0073336717 0.002175529 0.0375804 0.054236174 0.061517324 0.080324106 0.117152534
-0.058777526 -0.078300804 -0.05423301 -0.09381094 -0.11707233 -0.06821544 0.021654446 -0.026753753
-0.122973405 -0.13652809 -0.15334032 -0.14068037 -0.11155415 -0.049555685 0.023523701 -0.017288351
-0.011122401 -0.007945128 -0.018825533 -0.02331951 -0.029473552 0.028688742 0.021658791 0.047888335
0.043570902 0.025497768 0.03534571 0.011279828 0.00046918713 0.012152578 0.04203485 0.05967536
0.046402752 0.040422883 -0.01443896 0.04346335 0.06877854 0.1326757 0.21727893 0.28605896
0.26905164 0.2093491 -0.05762094 -0.022641703 0.030546976 0.075465344 0.13762738 0.16537635
0.17946434 -0.15053865 -0.18083149 -0.1625387 -0.2009293 -0.17864472 -0.09835315 0.016827732
-0.10816444 -0.25227386 -0.29742205 -0.3222136 -0.2850288 -0.21493305 -0.10319831 0.040709157
-0.0327706 -0.063450485 -0.08235244 -0.09236026 -0.06987572 -0.049840894 0.08294213 0.08757951
0.10111472 0.07788882 0.052714422 0.060968187 0.041197907 -0.016390737 -0.013870147 0.005280982
0.044764675 0.04369799 0.022707468 -0.04598318 0.03320226 0.042013556 0.09349952 0.18571724

resnet_layers.1.weight f4 [64]
00000000: 7b82 703e f652 883e 9a74 5bb3 81c9 043f
00000010: 316c 6c31 f8b8 633e a784 d83e 5a3b 0d34
00000020: 1d7a 803e f75d cb35 003d a23e 7740 803e
00000030: 9a02 c23e 3a3b 3637 67ef 8c3e 3e6c 723e
00000040: 8ed4 773e b466 ca3e 284e f03e 48f0 943e
00000050: 439d 8b3e b959 8e3e 98d5 943e cde4 533e
00000060: 639a 843e 27b3 8e3e 8d11 953e 8ecc a13e
00000070: c91c c73e 8eb4 9b3e 7917 893e c4fc 573e
00000080: b1fc 923e cc33 aa3e 197c da3e 021c bf3e
00000090: cda3 a033 2041 433e c23b 7d32 ee61 643e
000000a0: 9860 373e 3391 7e3e 1c49 8c3e 9eb9 843e
000000b0: aca1 963e 8435 993e b00e 653e a78d 863e
000000c0: 09fd bc32 023e 883e 1131 623e df8d 913e
000000d0: 9154 a93e c240 683e 3513 bb3e dc64 593e
000000e0: 9a67 753e d17b 7f3e d79c 063f 9d34 7e3e
000000f0: cc5f 973e 607e 843e 626d f73e 7c8d 883e
0.23487274 0.26625794 -5.109596e-08 0.5186997 3.440402e-09 0.22238529 0.42288706 1.315324e-07
0.25093165 1.5152026e-06 0.31687164 0.25049183 0.3789261 1.0861835e-05 0.275264 0.23674104
0.24202177 0.3953148 0.46934628 0.2908957 0.2726842 0.27802828 0.2906921 0.2069275
0.25899038 0.27871057 0.29114953 0.31601375 0.3888915 0.3041119 0.2677572 0.21092516
0.28708413 0.33242643 0.42672804 0.37326056 7.480376e-08 0.19067812 1.4740126e-08 0.22302982
0.17907941 0.24860077 0.27399528 0.25922865 0.2942022 0.29923642 0.22368884 0.26279947
2.2001148e-08 0.26609808 0.2208903 0.28428552 0.33072332 0.22680953 0.3653809 0.21229881
0.23965302 0.24949576 0.5258307 0.24824758 0.29565275 0.25877666 0.4832564 0.26670444

resnet_layers.1.bias f4 [64]
00000000: 1e41 6c3e 05f5 813e 6881 8db5 6415 2abf
00000010: 0957 8eb2 0166 253e beb4 e83e 8df5 e6b4
00000020: f0dc 993e 3e4e 06b7 ede6 b23e 637a 9f3e
00000030: bb84 7fbe 59bf 11b8 9d9f dc3d d839 603e
00000040: 8348 c33e 5ba6 07bf d2ee 20bf 2547 123f
00000050: 8985 993e ee94 153f 87cb f63e 9b34 a83e
00000060: 2f70 493e 11a4 473e 02cc 1b3e 5926 af3d
00000070: 545d 033f 80a3 793c b66f 2a3e 992f aa3e
00000080: 3b31 7f3e f500 e33e 5972 8fbe 07fe a6bc
00000090: fe91 83b4 be86 a43e ea1a 53b3 4679 733e
000000a0: 5d7f 6e3e ad6b a13e ac03 db3e d014 963e
000000b0: 0a10 873e c10c 2d3f 0cb3 db3e b5fa b03e
000000c0: bda2 bab3 bc3a 7d3e e637 9b3e 49a3 1d3f
000000d0: 58f4 cb3e bb04 aa3e 480a d3be 4492 c13e
000000e0: 903f 373e 24d4 833e c7ed e5be 202c 5a3e
000000f0: 34c0 113f 499f 123f 3505 cebe 67ae 6f3e
0.23071715 0.25382248 -1.0542981e-06 -0.6643889 -1.6570555e-08 0.16152193 0.45450395 -4.30195e-07
0.30051374 -8.00524e-06 0.34941807 0.3114806 -0.24952976 -3.47489e-05 0.10772631 0.21897066
0.3814126 -0.52988213 -0.6286441 0.5713981 0.29984692 0.58430374 0.48202154 0.32852635
0.19671701 0.1949618 0.15214542 0.08552236 0.5131428 0.015236735 0.16644177 0.3323944
0.24921124 0.44336668 -0.28016928 -0.020384802 -2.4506875e-07 0.3213405 -4.9151744e-08 0.23776731
0.23290773 0.31527463 0.4277624 0.29312754 0.26379424 0.67597586 0.4291004 0.34566274
-8.690902e-08 0.24729437 0.30316085 0.6157728 0.39834857 0.33206734 -0.4121878 0.37806904
0.17895341 0.25747788 -0.44907972 0.21305895 0.56933904 0.572743 -0.40238348 0.23406373

resnet_layers.1.running_mean f4 [64]
00000000: 8763 ac3b 38e2 943c 435d 8eb5 26d0 b3be
00000010: 01ec 0834 b427 1fbd 2159 2fbf 32d1 aab4
00000020: d386 da3c 998a 98b7 0129 42bb 8f28 243d
00000030: ff80 9d3e 1cc1 c338 8fe5 713d 1032 8abd
00000040: e874 993e a822 153f 55a3 9abe 4e68 0cbc
00000050: 17be 9dbd eddb b73d 2ba1 f53d c6a6 203d
00000060: dd1a 8abc 803d 1dbb 1814 fcbc c1d1 d6bf
00000070: 4593 fa3f 5561 9c3c 7a78 a9ba e5fa 613d
00000080: cfed d8bf ad86 88be 8f53 4d3f f887 8f3f
00000090: d220 8fb4 9c9a 8abe 6706 6833 c79c da3c
000000a0: 5df1 84bd 8cb0 e5bc d442 4bbc 1cba c0ba
000000b0: 636c e83c 505b 9bbf 6b3f 4dbb 1805 b93b
000000c0: 942b a532 63e7 1bbd 8d3e d5bc c281 593c
000000d0: c020 b23f a2bf 49bc b586 d63e 5726 523d
000000e0: a87b 92bb f509 a13c c80e 7abe 4e91 79bd
000000f0: 27d6 023d 95b1 8b3d ecc7 e73e 590f bcbc
0.005260888 0.018174276 -1.0606967e-06 -0.35119742 1.2751845e-07 -0.038856223 -0.68495375 -3.1817177e-07
0.026675617 -1.8184352e-05 -0.002962649 0.040077742 0.3076248 9.334294e-05 0.059056815 -0.0674783
0.29972005 0.58256006 -0.30202737 -0.00856979 -0.077022724 0.089774944 0.11993631 0.039221548
-0.016858513 -0.0023992956 -0.0307713 -1.6782762 1.9576193 0.01908938 -0.0012929582 0.055170912
-1.6947573 -0.2666525 0.80205625 1.1213369 -2.6659706e-07 -0.27071083 5.4022532e-08 0.026686085
-0.06491349 -0.028038286 -0.01240607 -0.0014703902 0.028371995 -1.2137241 -0.0031318318 0.005646359
1.9228345e-08 -0.038062464 -0.026030803 0.013275566 1.3916245 -0.012313755 0.41899648 0.051306095
-0.0044703074 0.019658068 -0.24419701 -0.06092959 0.031942513 0.068209805 0.45269716 -0.022956537

resnet_layers.1.running_var f4 [64]
00000000: 5bb9 973f b2da 9040 25d7 322e ea74 1940
00000010: eac9 032a 8c33 2340 b230 5541 6656 972c
00000020: 4c51 b13f 4c4f f830 f5f2 9c40 991d 5d40
00000030: 8a2f 1d40 9cef 3533 54ea 8841 977f c53f
00000040: 6ea4 b240 e4cb 7040 92b2 1340 fc71 0b41
00000050: 67cb a340 7255 6740 a1e1 d040 c262 803f
00000060: 0057 8a3e 561e 2b41 b38b 8441 bbc4 5e41
00000070: 166f 9c41 ee1e b53f 388e 933f 55b8 3140
00000080: 7536 f440 7cdf 3141 001a 8440 c91e bd40
00000090: 0d9d 902b cd68 e23f ac6d a429 4f07 513e
000000a0: 7aff 913d 37f0 213f 2df7 443f d358 0f40
000000b0: 58c4 8140 03bd 1741 a35e aa3f a88c a53f
000000c0: 1922 6f2a d3b4 f43f 1d3c a23e 0567 2a40
000000d0: 028b 3541 3558 da3e 38c1 2240 abf3 ee3e
000000e0: cff1 5940 39ee e440 e95a 4d40 6952 e23e
000000f0: 8e0a 2e40 2e4d e940 4d4d 6240 0454 e13f
1.1853441 4.526696 4.06636e-11 2.3977609 1.170519e-13 2.5500212 13.3243885 4.3012703e-12
1.3852935 1.8066912e-09 4.904658 3.4549315 2.4560266 4.236027e-08 17.114418 1.5429562
5.582572 3.7624445 2.307774 8.715328 5.1185794 3.6145902 6.5275426 1.0030138
0.270195 10.694906 16.568213 13.92303 19.554241 1.4150064 1.1527777 2.7768757
7.6316476 11.117062 4.128174 5.910008 1.0275406e-12 1.7688233 7.302088e-14 0.20412944
0.071288064 0.63257164 0.7693966 2.2397964 4.0552177 9.483645 1.3310131 1.293355
2.1239294e-13 1.9117683 0.31686488 2.6625378 11.346437 0.42645422 2.5430431 0.4667028
3.4053838 7.15408 3.2086737 0.442035 2.7193942 7.2906713 3.535968 1.7603765

resnet_layers.3.0.conv1.weight f4 [64, 64, 3, 3]
00000000: 14e7 6b3d 51cb c2bd 2412 a6bc c1b0 98bd
00000010: 739f 4cbf adf1 59be ed49 863d 72b3 c5bd
00000020: 966b 46bc a231 e5bb c1bb 693c e456 123a
00000030: 3ae9 283d 931f 25be 461e bebc f386 573b
00000040: 3e34 eb3b 4cd0 923d 945d 22b1 7ca9 28b3
00000050: 3b9c 0db3 e0b7 ba32 7e1b 0f32 097b 5732
00000060: 6388 4332 f158 1732 7231 8532 21b0 a53a
00000070: a8e3 a7bb db06 e43b 7841 aebc d7cf 8bbd
00000080: 22c8 80bc e913 d43c 9053 6fbc 2085 aebb
00000090: d093 a9b1 df1d b7b1 a63c 4631 f0e2 4eb1
000000a0: c4bd cbb0 56db aab1 3460 01b1 dc5e f42f
000000b0: f2a4 a62f f0d4 343d cdfc 703c 118b 84bc
000000c0: 1226 503d 5ca9 cc3d 82b7 4b3d 13f1 55bc
000000d0: 4959 223c 76c4 0a3a a016 1fbc e7a0 18bd
000000e0: d0bd 73bd c976 ed3b 651d ffbc e841 45bc
000000f0: 1197 60bb 3119 f53c 3b55 663b 53cd c3b2
00000100: 04bc abb2 039b 4132 087d e6b2 7805 54b2
00000110: 5e78 9a32 9064 34b2 1bf7 d330 a91a bd32
00000120: d062 d63c cb40 5a3b c9c3 baba 4628 8e3d
00000130: 9aa8 c63b cae4 203c 2e09 653d 64bd eb3c
00000140: 5e74 c03c b401 a031 6abb 6bb4 eee0 3db2
00000150: a7c6 91b3 4f95 6db4 2870 bc33 de78 3f34
00000160: 5b24 8633 0dea a734 0468 6f3c 85e6 823d
00000170: fa48 3dbd 0238 ce3d 55ce 85be dbfb 08be
00000180: d239 5d3c 6a80 8a3d 37fc 4dbd 4f15 92b8
00000190: 15fe ab3d 1475 243d c036 2d3d f139 343d
000001a0: 5036 353d f812 623d bd71 d13c 4541 1a3d
000001b0: 3e53 f5bc 6ff8 88bd e668 96bc 0582 f9bc
000001c0: 32f3 21be 1262 54bd 809d cc3a c8d7 05bd
000001d0: b268 c93c 94f7 0bb5 a684 37b5 155e b732
000001e0: c7da c9b4 8f70 3db5 eeb0 3835 c170 7835
000001f0: 55eb 8535 c233 d835 d9ee 593b fc2a 5bbc
00000200: 7eb4 2bbd 2181 dabc dc94 a83d 01e1 9dbc
00000210: 88aa 3fbd b92f 163d 59b6 75bd 44b5 d13c
00000220: 5517 9d3c 15d6 403d 47a3 ea3b 4c30 8dbd
00000230: 6a48 65bb b6b0 053c 7f02 6e3b 7d6d 883c
00000240: 18ea 163b 54c2 cc3c aa6c e2bc 8a84 67bc
00000250: 23e0 6ebc 0176 3e3c 141a 863b 8b38 963d
00000260: 9997 673d ebe0 0b3c af11 4b3b bae3 0ebc
00000270: aa54 033c ffd0 76bc da1f a2ba 2898 823c
00000280: b5c3 993b a0fd 9c3c 86b1 833c 7ab9 46bc
00000290: ebba b7bc 9d6a 0abc 521c 82bd 8246 ceb8
000002a0: eab0 173c 2010 83b9 5bdd 963b d01e 593c
000002b0: 9bc1 453c 8912 883d e00c 803d 8f64 d4bd
000002c0: 1aab 3ebc f68f 3bbc 1166 a0bd 5bff 33bc
000002d0: 4d1a 33bd 17ad abbd d9c7 493c e1dd 4dbd
000002e0: 30af b13b ae54 15bc 7cc9 39bd 2245 60bc
000002f0: ee90 47bd 4904 8a3c 9c77 e53d 6192 443d
00000300: 721f 13bd cfff aebb 15a5 1b3d 6b8d 39bd
00000310: 93ca babb 7e7f e03c bdd7 1ebc ec06 90ba
00000320: a9c8 5ebd 31c9 47bd 9cea b63c 9603 3fbd
00000330: 23fc d8bc 186d e3bc 39e6 81bd 3f77 9f3d
00000340: 9f71 ed3c a2d0 8b3d d4c9 a93c 50b4 5ebd
00000350: 672e 9b3c 0553 2b3d e040 213d 8a3f 743c
00000360: b171 cc3c 2c8b 1abd 612c 99bd 66ff b73d
00000370: eb09 d3be 0441 31bd 17c9 cabc a7ca 3e3d
00000380: 354d f03c 66ba 30bd de24 333d 3359 8dbd
00000390: 45de afbb d4ca f03c 7204 e7bc 0846 4a3d
000003a0: 9236 20bd a483 92bb aa78 99ba 749f 143d
000003b0: 4752 7f3d 51f6 31bd 4889 f9bd b7b7 133d
000003c0: f526 963b bc83 303d 98a7 a73b 2eea 153d
000003d0: 4758 e9bb 1cb8 80bb 9700 5dba f86e a5bd
000003e0: ea80 efbb 6643 1e3d a2c9 273d 1a84 473d
000003f0: 75cb 00bd 5af3 1e3d c253 31bc 9890 80bd
0.05759342 -0.09511436 -0.020272322 -0.07455588 -0.799308 -0.21283598 0.06557069 -0.09653367
-0.012110611 -0.006994442 0.014265955 0.0005582406 0.041238047 -0.16125326 -0.023207795 0.0032886832
0.0071778586 0.07168636 -2.3627296e-09 -3.9269693e-08 -3.297121e-08 2.1736867e-08 8.3299465e-09 1.2542622e-08
1.1381505e-08 8.80958e-09 1.5505723e-08 0.0012640991 -0.0051235743 0.006958825 -0.021271452 -0.06826752
-0.01572043 0.0258884 -0.014607325 -0.0053259283 -4.9353517e-09 -5.329397e-09 2.8847267e-09 -3.0105944e-09
-1.4824129e-09 -4.972587e-09 -1.8826656e-09 4.4450743e-10 3.0312425e-10 0.044148386 0.01470871 -0.016179593
0.050817557 0.0999324 0.049735554 -0.013057965 0.009908983 0.0005293557 -0.009709984 -0.037262823
-0.05950719 0.0072468263 -0.031141946 -0.012039639 -0.003426973 0.029919239 0.0035146016 -2.2794358e-08
-1.999252e-08 1.1269324e-08 -2.6832382e-08 -1.2341268e-08 1.7982696e-08 -1.0500244e-08 1.5422502e-09 2.201462e-08
0.026170164 0.003330278 -0.0014249022 0.06941275 0.0060625793 0.009820173 0.055916958 0.028776832
0.023492988 4.6568065e-09 -2.1954261e-07 -1.1052391e-08 -6.788223e-08 -2.2126663e-07 8.774833e-08 1.7832232e-07
6.246474e-08 3.1276468e-07 0.014612202 0.06391624 -0.046212174 0.100692764 -0.2613398 -0.13377325
0.013502555 0.06762774 -0.05028936 -6.9657915e-05 0.08398072 0.040150717 0.04228854 0.04400057
0.04424125 0.05519387 0.02556693 0.037659902 -0.02994692 -0.0668801 -0.018360566 -0.030457506
-0.15815428 -0.05185134 0.0015610904 -0.03267649 0.024586055 -5.214181e-07 -6.836584e-07 2.1346787e-08
-3.759835e-07 -7.057178e-07 6.880281e-07 9.255128e-07 9.977763e-07 1.6108318e-06 0.0033253937 -0.0133769475
-0.041920178 -0.026672902 0.08231518 -0.01927233 -0.04679349 0.036666606 -0.059988353 0.02559913
0.019176165 0.047079165 0.0071605775 -0.068939775 -0.003498579 0.008159807 0.0036317406 0.01665377
0.0023027714 0.024995007 -0.027639706 -0.014130721 -0.014579806 0.011624814 0.004092464 0.073350035
0.05654106 0.008537511 0.0030985882 -0.008721286 0.008015791 -0.015064477 -0.0012369112 0.015941694
0.0046925195 0.019163907 0.01607586 -0.012129182 -0.022427997 -0.00844827 -0.06353058 -9.8359786e-05
0.009258488 -0.0002499828 0.0046040243 0.013251975 0.012070085 0.0664416 0.06252456 -0.103707425
-0.0116374735 -0.011447897 -0.078319676 -0.010986174 -0.043726254 -0.08382624 0.012315714 -0.05026043
0.0054224953 -0.0091144275 -0.045358166 -0.013688358 -0.0487222 0.016847746 0.11204454 0.04799116
-0.03591866 -0.0053405534 0.03799923 -0.045300882 -0.0057004183 0.027404543 -0.009694991 -0.0010988391
-0.054390583 -0.048775855 0.022328667 -0.04663428 -0.026487416 -0.02776198 -0.063427396 0.07786416
0.028984843 0.06826903 0.020726122 -0.05437118 0.018943025 0.04182722 0.03936851 0.014907727
0.024956556 -0.03773038 -0.07479168 0.0898426 -0.41218504 -0.043274894 -0.02475409 0.046579983
0.02933369 -0.043146513 0.04373633 -0.06901779 -0.0053670728 0.029393591 -0.028200362 0.049383193
-0.039114542 -0.004471259 -0.0011708934 0.03628488 0.062334325 -0.043447796 -0.121843874 0.036063876
0.0045822808 0.04309438 0.0051164143 0.036600284 -0.007121119 -0.0039281975 -0.0008430569 -0.08077806
-0.007309069 0.038638495 0.040963776 0.048709966 -0.03144403 0.038806297 -0.010823192 -0.06277579

resnet_layers.3.0.bn1.weight f4 [64]
00000000: f23a 9e3e 3edd 5b3e 2841 723e ae13 da3e
00000010: ee80 033f 0458 5f3e 2abb 613e ea78 6b3e
00000020: bc2b 873e 8af5 893e 86e8 5a3e 249e eb3e
00000030: bd3c 883e a176 6d3e 4eb2 c73e 5796 743e
00000040: 1037 883e e115 ba3e 0fe0 b13e 39a5 7d3e
00000050: fe2a a83e 79f1 083f 80de 243f 12f4 683e
00000060: f677 e53e 3a9a 9d3e c254 853e 671d ee3e
00000070: 4d2d 5f3e 6556 923e 4064 af3e 674d e23e
00000080: fed3 e33e d968 e63e 6d32 0d3f 5f5b 023f
00000090: d34c 833e d6de 863e 62fc 103f b315 243f
000000a0: 5d1a 643e 3e5e 4b3e 68db 7b3e fa94 653e
000000b0: 6974 5b3e 2ff9 4a3e 1203 233f 0b01 9f3e
000000c0: f042 013f 880a 763e c2ec 9c3e 4181 c03e
000000d0: 2a3e c23e 392b db3e 4421 993e c04e aa3e
000000e0: 6af0 843e e247 ab3e 2c61 4d3e 9dbf de3e
000000f0: 6a4c 2c3e f8d2 033f 9198 863e f296 a63e
0.30904347 0.21471116 0.23657668 0.4259314 0.51368606 0.21810919 0.22044054 0.22995344
0.26400554 0.26945144 0.21377763 0.4601909 0.2660884 0.23189785 0.39003223 0.23885475
0.2660451 0.36344817 0.34741256 0.24770059 0.328453 0.5349346 0.6440201 0.22749355
0.44818085 0.30781728 0.26041228 0.46506807 0.21794625 0.2858154 0.34256172 0.44199678
0.44497675 0.45001867 0.5515507 0.5092067 0.2564455 0.26341885 0.56635106 0.6409561
0.22275682 0.1986017 0.24595416 0.22420111 0.21431126 0.19821618 0.6367656 0.31055483
0.50492764 0.24027455 0.30649382 0.37598613 0.37938052 0.42806414 0.29908192 0.33263206
0.2596467 0.3345328 0.200566 0.43505564 0.16826025 0.5149379 0.26288274 0.32537037

resnet_layers.3.0.bn1.bias f4 [64]
00000000: f4a2 293e 39c4 773e 613c 363e 18b1 30bd
00000010: 4e42 52be a595 233e aefb 953e 63bb ba3d
00000020: f9a6 e43d 17fd b43d 9d20 e23d 7e68 50be
00000030: 779f 1d3e b58d af3d 490c e0bd 950a 863d
00000040: 9bdd 9c3d d0a5 53be 928d adbc 14fd 0e3e
00000050: 0a5a 243d 95c4 90be edc2 a6be 281e 63bb
00000060: f7e5 dfbe b8ae ffbd 1b52 033e 5afb b2bd
00000070: b199 f53d 1fd7 a9bd b112 08bf b8ce 9fbd
00000080: 1577 c6be 38df 5fbd 88e9 39be d661 41be
00000090: 112e 073e b076 4d3b ff17 8abe 87c6 98be
000000a0: 59b2 0e3e b6f1 843e 0e8a 0c3e ec7f ac3b
000000b0: 1974 573c 69ae a83e f502 8bbe ecfa 98bc
000000c0: 529e 7cbe a4bb 213e 92d7 863c 825f b6bd
000000d0: 4bd8 42be 0820 a1bd e117 2e3e bf63 f7be
000000e0: 52a1 7d3d 65ab 8abd 6bfb 9f3e 27a3 01bf
000000f0: 20ac a03e 1d02 86be 7233 1ebe e7d0 cd3b
0.16566068 0.24195947 0.1779647 -0.04313764 -0.20533106 0.15975054 0.2929358 0.091177724
0.1116466 0.088373356 0.11041377 -0.2035236 0.15392862 0.0857195 -0.10939843 0.06544987
0.076594554 -0.20668721 -0.02118567 0.13963729 0.04012493 -0.2827498 -0.32570592 -0.0034655426
-0.43730137 -0.12484497 0.1282429 -0.08739348 0.11992205 -0.08292984 -0.5315352 -0.078031
-0.38762727 -0.054656237 -0.18155491 -0.18884978 0.13201167 0.003135126 -0.26971433 -0.29838964
0.13935222 0.2596566 0.13724539 0.005264273 0.013150238 0.32945564 -0.27150694 -0.018674336
-0.2466977 0.15794235 0.016460214 -0.089049354 -0.19027822 -0.078674376 0.17001297 -0.48318288
0.061921425 -0.06770972 0.31246504 -0.50639576 0.3138132 -0.26173487 -0.15449312 0.0062810066

resnet_layers.3.0.bn1.running_mean f4 [64]
00000000: 556f 79be 4a4c a7bd a316 6a3d f836 bdbe
00000010: 6d0e 81bf 4d54 0fbf e34a fdbd 0271 8abe
00000020: 5ceb 4fbf 1291 4bbf 30ab 723d b462 93bf
00000030: 0cb5 35bc a4b7 50bf 0fd1 38bf e2c5 f3be
00000040: 7c1b 30bf 973d 0fbf 39b8 81bf 3f68 f2bd
00000050: 1181 7bbf 2658 77bf 9f2e b2bf 3939 55bf
00000060: fbde 45bf 4370 22bf acae ca3e 3477 7bbf
00000070: 5409 7f3e 4479 843e ae84 d7be a522 78bf
00000080: ab24 acbf 65b3 dbbf ca6c c5bf 1d24 33bf
00000090: 2527 2dbf 9b60 f8bd 773f d3bf a8af c0bf
000000a0: 6dcb 0ebe 339b 33bf c0cc 0d3f 8804 863f
000000b0: 178b 16bf 7c2a cebe 3033 01c0 74c9 9bbf
000000c0: 5d52 96bf 0d41 abbf c47c cbbf f075 b6bf
000000d0: b16a 5cbf 550e 74bf 802e b6bf e6b8 673d
000000e0: 6e07 62bf 95b6 0bbe 9b54 c1be b59e 49bf
000000f0: 71bb 03be 6b29 85bf 7409 6f3f 2f97 0dbf
-0.24358876 -0.08168848 0.057150494 -0.36956 -1.0082527 -0.5598801 -0.12367799 -0.27039343
-0.81218505 -0.79518235 0.05924529 -1.1514497 -0.011090528 -0.81530213 -0.72194 -0.4761191
-0.6879194 -0.55953354 -1.0134345 -0.118362896 -0.98243815 -0.9661888 -1.3920478 -0.8329044
-0.77293366 -0.6345255 0.3958639 -0.98228765 0.24905902 0.25873768 -0.42093414 -0.96927863
-1.344869 -1.7164122 -1.5423825 -0.6997698 -0.67637855 -0.12127801 -1.6503743 -1.5053606
-0.13944788 -0.7015869 0.5539055 1.0470133 -0.58805984 -0.40266788 -2.0187492 -1.2170854
-1.1743885 -1.3379227 -1.589745 -1.4254742 -0.861003 -0.9533437 -1.4232941 0.056572817
-0.88292587 -0.13643868 -0.3775986 -0.7875779 -0.12864472 -1.0403265 0.933738 -0.5530881

resnet_layers.3.0.bn1.running_var f4 [64]
00000000: 3a02 073e 2bfa 4b3e ea26 cb3e 22ad 573e
00000010: 4f67 5b3e 60c1 9f3d f028 d33d 4182 2e3f
00000020: 567c 053e 5e0e 893f 66a5 ef3d 1e4e 0e3e
00000030: a514 cb3d 52e1 1b3f 9e02 ff3e b31d 683e
00000040: 035b b33d 8a75 073f d2d1 ff3d ef66 a03d
00000050: 137c 223f 64d1 4a3e e2f0 193f b558 303e
00000060: b77c b53e 3d40 0b3f fef0 e03e c1be ff3d
00000070: 01fb a43e 3c39 803e 9450 8a3d df87 d83d
00000080: 7276 e53e a059 663d 091a 253f 7777 4a3e
00000090: 7e5f 793e 908c 383e 269d f43d c92c 273f
000000a0: c433 fa3e cb2f 3c3d f9a0 743e 057d 373d
000000b0: f455 4c3e 65a8 413d 661a 363f 8254 143e
000000c0: 8890 203e e6a4 073e 87a5 3d3f 7b82 943d
000000d0: a97a c23e a228 e43d fb58 113d 5a77 ed3d
000000e0: bd8b c93d 625d b93c 0f86 193d 7a1c 8f3e
000000f0: b8ad f63c e946 333e d53a 293d 1497 0e3e
0.13184443 0.1991965 0.39678127 0.21062139 0.21426128 0.07800555 0.103105426 0.681675
0.13035712 1.070751 0.11701469 0.13896987 0.09916047 0.60890687 0.49806684 0.2266758
0.087575935 0.52913725 0.12491192 0.07832133 0.6347057 0.19806439 0.60133183 0.17221339
0.35446712 0.54394895 0.43933862 0.12487555 0.3222275 0.25043666 0.0675365 0.1057279
0.4481693 0.056237817 0.6449285 0.19772135 0.24352834 0.1802237 0.11944036 0.6530271
0.4886762 0.045944016 0.23889531 0.044796962 0.19954664 0.047279734 0.7113403 0.14485362
0.15680134 0.13246498 0.740807 0.0725145 0.37984207 0.111405626 0.03548525 0.1159503
0.09841106 0.022627536 0.037481364 0.27951413 0.030112132 0.17507519 0.041315872 0.13924819

resnet_layers.3.0.conv2.weight f4 [64, 64, 3, 3]
00000000: 538e d43c bf2b d6bd 0a58 9cbb c695 b0bd
00000010: fb10 a9be fb6f d2bd 3937 6bbd 8b52 43be
00000020: b9d4 5fbd 5cdd 8abc 632e af3c b71c 0abb
00000030: 6528 58bb ad60 383d 8c95 3cbc 0521 74bd
00000040: 0bcd d43b 2c94 3e3b 1723 93bb c3dd a03c
00000050: 70bb 573c 8acf 553c 7edb fdbb 097c 433c
00000060: be6c 5c3c 99e8 353c 50b3 b43b 7856 043d
00000070: ed62 8abd 2097 51bd ecf5 613c 2a5a 26be
00000080: e397 9abd b243 8bbb 4ef3 d0bd f979 4cbd
00000090: 5358 7b3c ce42 59bb 5d97 92bb 6c18 413c
000000a0: 2932 8b3c a277 eabb 3945 a23b d082 bf3c
000000b0: d561 873b 25ee 853d 2f91 843d b02a a03d
000000c0: 8129 a53d cf9c 793d 9d64 be3d 7ee7 a23d
000000d0: 7e4f 8b3d 732f a73d ba9d 8e3c b342 aa3c
000000e0: 4335 7f3c 3f64 fe3c 2123 17bd 8eb4 47bc
000000f0: dac9 2dbc 1998 20bc f8d3 04bc f08d 26bc
00000100: d799 853c 607c 9ebc 97ce dabc 7b7b 5fbc
00000110: 858b f4bc cfba af3c f786 893c 35b9 f2ba
00000120: ec90 203d 4a73 443d 996a 923d f8e4 be3c
00000130: 8a32 5d3d e859 503d afc8 923d 109d 783d
00000140: c496 183d 5575 393d e455 523d eb66 1c3d
00000150: c5ef d93c 2c3a eb3c aad0 c03c f467 f43c
00000160: 6e61 593d bee2 3d3d 091b 253c f2b1 ac3c
00000170: 89f5 813b c8d3 00bc 9f16 653d c869 013d
00000180: 3f4b 3d3b fe7b b9bb 4481 7c3c 5b58 1b3d
00000190: c4d5 253d 316b 3b3d 05e4 74bc 983c e2ba
000001a0: 1069 da3c f475 d13c 1c2d 323d 95b9 3b3d
000001b0: 6d8f 63bd 8548 d7bc 4ff7 d7bc c9a0 60bc
000001c0: b081 d83c 0778 d73c a6fd dbbc cf40 d0bd
000001d0: d9e8 e0bc a01f fabc 4902 90bc 0951 343b
000001e0: 79c5 bcbc cb6f f8bc b78a de3c cf2f 2d3b
000001f0: aaed 9b3b 72a1 6f3c f18a 783c cf01 b13c
00000200: 1474 1d3d bbec e83c 490d 18bb ab30 b13c
00000210: f7cf c93c 3b0c ad3a f1a2 c23c e893 08bc
00000220: 4a60 923b 1ca7 fb3b 38ac c23c 6f3c 683c
00000230: 1d9a 0bbb a33c 193b 8c85 773a 700f b93c
00000240: 58b8 c1bc 9f0e 01bd 6997 4ebc 3ede a1ba
00000250: d4d3 d93c 1271 213c 764e bcbc fada 903c
00000260: b7f0 0cbc c773 c13c 84c5 13bc 8280 003c
00000270: 620c 3f3c d72e 69bc f1be 8d3b 145c 583d
00000280: 65d1 cf3c 37ec 153d ff81 cfbb 20a3 d93b
00000290: 84bf 88ba a9eb 2e3c 659a 0a3d 06dc ff3c
000002a0: 53e1 b639 de02 f4bb cd9b 8d3b 6dc6 ce3c
000002b0: f169 3f3d 0bd5 553d e1a4 8b3d 5b1e 1e3d
000002c0: 00d8 a73c 06aa c63c 6c0f 353b 22a4 e03c
000002d0: fd58 2fbd 16ad bebc cad1 f5bc 2f2b 20bd
000002e0: 1650 8bbc 17e9 21bc 95ed 4bbd a603 10bd
000002f0: 9680 b8bb a64b d73c 9902 233c 56f7 f03b
00000300: 0cff b03c 0f3f 6fbc 2a24 94bc f70a e63c
00000310: 7235 68bc 6e9d ce3b 10cc 183d b74d 053d
00000320: 6c00 6a3d 7f68 a93b 9146 903b a45c 293d
00000330: 817e 2b3d c48c cb3c 3461 1c3d 1e0a 833a
00000340: 3801 07bc 38eb 10bc 7297 0fbc f78f 833c
00000350: 615f 8ebb 6a37 6d3c ac60 283a 14d5 b23a
00000360: 8edd bdb9 f88f f9b9 54e1 80bb c04e 3b3b
00000370: 0961 663c 64ba 883c 4c0a 853c ac9f edbb
00000380: c747 6e3b afc6 033d cf68 9f3b c7fc 123c
00000390: 6611 0f3b 60b0 21bc bfc0 b0bc 3583 7e3c
000003a0: 94ca d737 783d 7cb9 4261 aebc 35d3 8cbc
000003b0: ad98 ecbc 3deb 933c 7447 c83c 0984 013d
000003c0: 327e fbbc 61b2 873b 208c 763c 28c8 0b38
000003d0: 4ba3 2a3c 46a8 053d bee4 d9bc 32f7 e3bc
000003e0: 4499 06bc 710f e6bc a936 4ebc 1143 ddba
000003f0: 455d 0dbd dde4 f13c b6ca 943a b3f5 90bc
0.025946772 -0.10457563 -0.0047712373 -0.08622317 -0.33020768 -0.10275265 -0.05742571 -0.19074456
-0.054646228 -0.016951256 0.021384424 -0.0021074244 -0.0032983061 0.045014072 -0.011510264 -0.059601802
0.0064941696 0.0029080017 -0.004490267 0.019636994 0.013167247 0.013049969 -0.007747113 0.011931428
0.0134536605 0.011102819 0.00551454 0.032309026 -0.0675715 -0.051169515 0.0137915425 -0.16245332
-0.07548501 -0.0042500133 -0.10202657 -0.04992101 0.015340882 -0.003315139 -0.0044736103 0.011785608
0.016991692 -0.0071553746 0.0049520996 0.023377806 0.0041315355 0.06539563 0.06473004 0.07820642
0.08064557 0.06094056 0.09296534 0.0795431 0.06802271 0.08163347 0.017409194 0.020783758
0.015576663 0.03105366 -0.036898736 -0.012189044 -0.010607207 -0.009801888 -0.008107178 -0.0101656765
0.016308708 -0.019346416 -0.026709838 -0.01364028 -0.029851684 0.021451382 0.016787989 -0.0018518331
0.03920071 0.04796151 0.07149238 0.02330254 0.054003276 0.05086699 0.071671836 0.06069666
0.037253156 0.045277912 0.051351443 0.038184088 0.026603589 0.028714262 0.023536999 0.029834725
0.05307143 0.046358816 0.010077246 0.021080945 0.0039660376 -0.007862993 0.055929776 0.03159502
0.0028883961 -0.005660533 0.015411679 0.03792606 0.040487066 0.045756523 -0.014946942 -0.001726049
0.026661426 0.02556894 0.04350005 0.04583128 -0.055556703 -0.026279697 -0.026363043 -0.013710209
0.026429027 0.02630235 -0.026854347 -0.10168611 -0.02745478 -0.030532658 -0.017579215 0.002751412
-0.023043381 -0.030326745 0.027165754 0.0026426201 0.0047585564 0.014625894 0.015169845 0.021607308
0.03844078 0.028433194 -0.0023201278 0.021629652 0.024635298 0.0013202498 0.023759337 -0.008336045
0.004467045 0.007679833 0.02376376 0.014174565 -0.0021301575 0.002338209 0.0009442202 0.022590369
-0.023647472 -0.031508084 -0.012609341 -0.0012349559 0.026590265 0.009853618 -0.022986632 0.017682541
-0.008602313 0.023614777 -0.009019259 0.007843139 0.011660667 -0.014232359 0.0043257405 0.052822188
0.025368402 0.036602225 -0.0063326354 0.0066417605 -0.0010433053 0.010676303 0.03383865 0.031232845
0.00034881625 -0.007446631 0.0043215514 0.025241101 0.046731893 0.052205127 0.068185575 0.038603168
0.020488739 0.024250995 0.00276276 0.027422015 -0.042809475 -0.023275893 -0.030007262 -0.039103683
-0.017005961 -0.009882233 -0.049787123 -0.03515973 -0.005630563 0.02628119 0.00994935 0.0073537035
0.02160599 -0.014602437 -0.01808365 0.0280814 -0.014172899 0.006305388 0.037303984 0.032544818
0.05712931 0.0051699276 0.0044029434 0.041348115 0.04186869 0.024847396 0.038178638 0.0009997522
-0.008240037 -0.008845143 -0.008764135 0.016059859 -0.004344866 0.014478544 0.00064230966 0.0013643824
-0.0003621396 -0.00047600246 -0.003933111 0.0028580874 0.014061221 0.01669044 0.016240261 -0.0072517004
0.00363587 0.0321719 0.004864789 0.0089714 0.0021830439 -0.009868711 -0.021576283 0.015534212
2.572433e-05 -0.00024055492 -0.02128661 -0.017190555 -0.028881395 0.018056506 0.024448134 0.03162006
-0.030699823 0.0041411375 0.015048057 3.3326593e-05 0.010414909 0.03263118 -0.02659833 -0.027827833
-0.008215252 -0.028083535 -0.012586274 -0.0016880949 -0.034512777 0.029528076 0.0011351916 -0.017695284

resnet_layers.3.0.bn2.weight f4 [64]
00000000: 8c9d 7f3e b30d 613e 8b1d 8d3e 5277 1b3f
00000010: 5ae3 873e d1a3 963e 97b6 e83d 538a e23e
00000020: 23db 923e d543 983e ae4d 803e 0818 d23e
00000030: 038d f83e 0b32 ad3e c215 ef3e 7780 353e
00000040: a54b 5e3e 61a4 003f cdc4 673e e1ba bb3e
00000050: 5935 f93e a9d1 ea3e a333 ee3e 693f 613e
00000060: f5ab 1a3e 5263 8d3e 263d c33e 6d89 8f3e
00000070: ffe4 733e 7569 ca3e 583e 9b3e a9f5 a13e
00000080: 9154 4f3e f1d9 6d3e 1915 4d3e 6116 2a3e
00000090: 431d f03e 0afe b13e b1c9 ae3e 42d1 683e
000000a0: 957f 7e3e 9b35 713e 0096 8b3e 956b ee3e
000000b0: 8696 af3e 2962 7c3e 9453 ef3e 82f8 8f3e
000000c0: 25c4 1f3f 5993 d43e 6739 ae3e 24f3 d73e
000000d0: fde9 eb3d 9fcf 983e a589 143f 5e20 8f3e
000000e0: c4ee f03e 9d46 e73e ca4d dc3e 23bb 8c3e
000000f0: cc74 af3e 35c9 e83d 35c3 013f 96be df3e
0.24962443 0.21977882 0.27561602 0.60728943 0.26540643 0.29421857 0.11362951 0.44246158
0.28682813 0.29739252 0.25059265 0.4103396 0.48545083 0.33827242 0.46696287 0.17724787
0.21708544 0.5025082 0.22633667 0.36666015 0.48673514 0.45863083 0.4652377 0.21996845
0.15104659 0.27614838 0.3813259 0.28034535 0.23817824 0.39533582 0.30321002 0.31632736
0.20247103 0.2322767 0.2002758 0.166101 0.46897325 0.3476413 0.34138253 0.22736076
0.24853356 0.23555605 0.27262878 0.46566454 0.34294528 0.2464682 0.46743453 0.28119284
0.6240867 0.41518667 0.3402817 0.4217769 0.11519239 0.29845902 0.5802253 0.27954382
0.47057164 0.4517106 0.43028098 0.27486524 0.34268796 0.11366502 0.5068849 0.43700093

resnet_layers.3.0.bn2.bias f4 [64]
00000000: b4fb 683e 5220 0e3c edec 89bd d3db 8cbd
00000010: 5e34 b83e e181 4ebe 4522 4bb8 1470 c23c
00000020: 1e7e ca3e f1df 173d bd6b e13b b532 8d3e
00000030: e9ea 8fbd 5f74 75be ff6d a7bd 3ac8 c0bd
00000040: 10ed 14be 14c9 183d cb35 b9be e78d cabe
00000050: fcd6 d0be d509 693b 38bc 8ebe 3496 10bd
00000060: 98ef 8fbd a718 573e 80eb 97bb 1a5e 49be
00000070: c5b2 8fbe b27f 87bc f76e 873e c501 b7bd
00000080: d482 57be 2063 05be 2e47 303e fcbc 5a3d
00000090: 2d4e 64be 9ebe 44bd fb9c 7b3e e985 563e
000000a0: d217 263e bada e83d d2a1 ea3d f744 18be
000000b0: 29b0 03bd ec68 9cbe ad84 fb3e f9ad de3d
000000c0: 305f 513c 6fb4 cd3d cbc0 d43e 8401 71bc
000000d0: c8f8 c33c 416a cc3d 85e0 30be a566 ce3d
000000e0: 8621 15be 74cf 68be 50a3 0b3e 9c18 4e3e
000000f0: 2d3c 6bbd fdf2 703e f665 e7bd 9360 9e3e
0.22752267 0.008674698 -0.06734643 -0.06877866 0.35977453 -0.20166732 -4.8430888e-05 0.023735084
0.39549345 0.0370788 0.0068792985 0.2757775 -0.070272274 -0.23970173 -0.08175277 -0.0941319
-0.14543557 0.037301138 -0.36173853 -0.39561388 -0.4078902 0.003555884 -0.27877975 -0.035299495
-0.07028121 0.21005498 -0.004636228 -0.19664803 -0.28066078 -0.016540382 0.26451847 -0.089358844
-0.21046 -0.13026094 0.17214653 0.053402886 -0.22295447 -0.04803335 0.24571602 0.2094952
0.16220024 0.11369844 0.11456646 -0.14870058 -0.03215042 -0.305488 0.4912466 0.108730264
0.012779042 0.100441806 0.4155334 -0.014709834 0.02392234 0.09981204 -0.17273147 0.10078172
-0.1456357 -0.22735387 0.13636518 0.20126575 -0.057430435 0.23530193 -0.112987444 0.30933055

resnet_layers.3.0.bn2.running_mean f4 [64]
00000000: cf2c 133e b089 a83b 15a1 483f 70ad 2b3e
00000010: d022 ea3e b253 56bd f96a 75bd b66b 963c
00000020: 2903 b7be 1d4c 873d f473 f3bd e228 b3bd
00000030: fd3a cdbd 9ad2 8bbd d265 90bd a075 55be
00000040: c5a4 e7bd 3d2c 033e 85e8 89bd 4295 0e3c
00000050: 91a1 8d3d 80cf 95bd b948 7a3d 6b36 16be
00000060: c411 acbc 9089 dabe 8529 2f3d 277f 97bd
00000070: 3752 0bbf 22c7 82be 7e56 1fbe f2b5 cabe
00000080: 0f33 4dbe e422 1dbf c1d9 543d 2b52 e83d
00000090: 2757 8f3e 52eb 01bf d17f 03be 9b4a 60be
000000a0: 0e52 fdbd d003 13bd ae88 7c3d b3c2 22be
000000b0: 1ff3 273e 0313 edbe e03d 22bf 8d0b 643e
000000c0: 2a00 963c ca3e 18bd e3f4 21be dc32 1b3e
000000d0: da82 08be e4cd 05be 8c54 f53d 88a8 17be
000000e0: 84d1 4cbe 3ab9 bbbd 866d 40be 6360 a63e
000000f0: d871 97bc ea89 ec3d 4682 583d 1c5a 103c
0.14372562 0.0051433668 0.7837079 0.1676538 0.45729685 -0.05232591 -0.05991647 0.018361907
-0.35744599 0.06606314 -0.11887351 -0.08748032 -0.10021017 -0.068272784 -0.07050671 -0.20845652
-0.11310724 0.12809844 -0.06733803 0.008702578 0.06915582 -0.07314968 0.06110451 -0.14669196
-0.021004565 -0.42683077 0.042764205 -0.07397299 -0.54422325 -0.2554255 -0.15560338 -0.39591938
-0.20039009 -0.61381364 0.05196548 0.11343797 0.2799618 -0.50749695 -0.12841727 -0.2190346
-0.12369166 -0.035892308 0.061653785 -0.15894584 0.16401337 -0.46303567 -0.63375664 0.22270031
0.018310625 -0.037169255 -0.15816073 0.1515612 -0.13331166 -0.13066822 0.11979017 -0.14810383
-0.20001799 -0.091661885 -0.1879178 0.32495412 -0.018486902 0.115497425 0.052858613 0.008810546

resnet_layers.3.0.bn2.running_var f4 [64]
00000000: faf0 393e 32c9 1d3d ab12 363d 9d29 c33e
00000010: 0bf2 be3d ddf0 6d3d e5db c03d ad36 533d
00000020: 82dc 133d 7ad4 3f3d 2ceb 683e 9d0f df3d
00000030: 3590 a13d 700d 5d3d 482f 733e c199 433d
00000040: cfb3 a93d ae99 a63e fe22 c13c 20a4 883e
00000050: 1bfa 833e a719 f73e 0596 593e c66b 2f3d
00000060: 37b0 813c 6d7a be3d c46c 4f3e 178e ca3d
00000070: e6b6 893d 7fbf 823e 3b23 f23c d4c3 0c3e
00000080: e461 9c3d 4355 143e 86d6 603d 5916 693d
00000090: 0328 1a3d de86 ce3d e123 b03d 5033 bf3c
000000a0: 7dcc b93c 7b7f 133e a93a 443e 6b2e c33d
000000b0: dc9e 113e 730b 743e 7d7b f83d 910b 833e
000000c0: 6638 e93e fb4f d13d 7b17 293d 5196 973e
000000d0: 919c 663d c65b 3a3e d8de 8a3e 6671 1c3e
000000e0: 54c7 1c3e 167c a23e 336a 613e 988f f73c
000000f0: a7e4 373e 46e8 bd3d d11c cd3c 26f1 273d
0.18158332 0.038521953 0.044451397 0.38117686 0.0932351 0.058091033 0.094169416 0.051565815
0.036098965 0.046833493 0.22745961 0.1089165 0.078888334 0.053967893 0.23748505 0.047754053
0.08286249 0.32539123 0.023576256 0.26687717 0.25776753 0.4826176 0.21248634 0.04282739
0.015831096 0.093006946 0.20256335 0.09890383 0.06724338 0.25536725 0.029557815 0.13746578
0.07635859 0.1448565 0.054892085 0.056906078 0.037635814 0.100843176 0.08600593 0.023339897
0.022680515 0.14404099 0.19163002 0.09530338 0.14220756 0.23832493 0.121329285 0.25594762
0.4555084 0.10220333 0.04128216 0.2960687 0.056301657 0.18199071 0.2712314 0.15277633
0.15310413 0.31735295 0.22013168 0.030219838 0.17958318 0.09272818 0.025038155 0.04100146

resnet_layers.3.1.conv1.weight f4 [64, 64, 3, 3]
00000000: 057b a13c 6f3c acbb fb89 76bb 2dd9 a0bc
00000010: 491e 4abc b229 10bd 1beb 4f3d ddf7 9a3d
00000020: 9a89 313d 6f00 683c 620e 0dbc 01b5 2cbc
00000030: 5e6e 2ebd 5416 c3bc 6c06 60bd 3bbb b7ba
00000040: cc5d 3f3d 6b7a 503d b99b b03c ea6b 883b
00000050: 311e 1fbc 52b3 18bc 6d57 d0bc 249e e7bc
00000060: a0a2 f6bc 9f8c 45bd 9200 d5bc eaa0 c1bb
00000070: 3adf 3cbd c687 8d3d 9ad1 073d 853d 73bc
00000080: bd40 693d 4894 033d 9af8 093d f885 74bd
00000090: b00c 833d 58ec a03d d9dc 8b3d 2833 1d3c
000000a0: 6274 803c 73b3 5bbb a522 4d3c d991 d23c
000000b0: e343 0bbc 8cf5 323d e4b4 3d3d 850b 903d
000000c0: f7d6 bc3c 591f 0dbd 8a40 5539 c9fa 9a3c
000000d0: 06ce 3abc 0268 e4bb 6e99 aa3c b27e a63b
000000e0: 8ba4 fdbc 403f 683b 4808 d0bc 8d82 28bd
000000f0: df2c 973c 56e7 823c e89d 6a3c 0206 e23c
00000100: a759 9d3b 10ed b6bc ca44 8ebc 80f3 bcbc
00000110: d7ab 97bd ba41 9c3c 512a 9e3d e494 2f3d
00000120: 1196 f7bb 4676 3f3c fe97 bdbc 95c9 55bd
00000130: 13d4 0abd 1a45 f8bb 1336 5e3c 8ccb cd3d
00000140: de5c 1f3d 4866 213d b172 383d 451f 2a3d
00000150: 1162 ca3c 2fc1 853c 8ce8 d23c 04b1 89bc
00000160: bb25 1cbc 2822 9fbb 2335 20bd c941 abbd
00000170: ee23 7abd 69b1 d5bc 8aba 043d 39ae 903c
00000180: fc4e 4dbd 0b89 f1bd 7083 afbd 4f3e 61bc
00000190: 6ec5 22bd a367 b9bd 7b6c 5fbc bb51 ff3d
000001a0: eee0 a43d 13f0 d83c 555d 05be 62a6 153e
000001b0: 3544 86bc 74fa 8abd ba98 54bd f305 873c
000001c0: 0c8a ad3b 9156 83bd 063b b7bc e1ea d53d
000001d0: fd98 7ebd 2749 51bc 6c5b f0bc 0c66 06bd
000001e0: 13a0 b2bb 2e24 e4bb 87f5 85bc f175 913b
000001f0: f311 143d a770 393c 9b83 3b3c 56dc 073d
00000200: eb01 90bc f1ba f53c 934d 263c a961 0dbc
00000210: 0cae e6bc 495f 7ebc e68d 623d 97ad 8fbd
00000220: 2d96 28bd bab9 873a 9045 44bd b84c f7bc
00000230: 23ad 53bb 8914 a13c 5bde 823c dad2 c73c
00000240: 03ec a0bc 596a 993c 67fb 46bc f6ac b2bc
00000250: 13b0 743c 49fa 68bc 84d7 05bd eded 04bc
00000260: 6310 8dbc 87aa 7fbd b6ae b4bc 5c3d 9bbd
00000270: 5ed5 8b3c db08 da3d 53cd 4a3d 57cb b33c
00000280: 855b f2bc dce0 f43b 0918 903c 68a3 f73c
00000290: 86b3 04bd da3c 0c3d 99df c33d e771 b73a
000002a0: 20cf ca3b 04e5 f73b ee23 c33c 30c8 72bd
000002b0: bd7f d4bd 28fa 09bd b2bc 81bc 90cc 343d
000002c0: 95f3 893b 30f7 df3c 4296 203e 886a b8bc
000002d0: 2333 de3c 7b9a 933c 484b 2dbb f4a1 963d
000002e0: 44ca 003d 13d0 d83c dc64 46bd 3b2f 353c
000002f0: f7e3 403d 6653 06bd 3f9f f7bb 4ef7 65bd
00000300: 43ce d33b 382e 493d cbec 8bbc dfb6 98bc
00000310: d275 1dbd 2f1d e8bc ed06 c23c dc97 413b
00000320: 07cc 5a39 6d9c ef3a 079d c4bd 67f3 1dbd
00000330: 4cbf 173d 8f9b 4f3d bfbc 6dbd c2a1 423d
00000340: 4108 493d 40c0 ef3c ed0b ad3c 626c 91bc
00000350: 8f11 d1bc f57a 09bd 1ec1 09bd 89c7 b8bc
00000360: 3444 713c 10a0 a3bc c7ed 68bc f35d e7bc
00000370: 1604 00bc 739f bcbc 8109 1ebb 2656 ed3c
00000380: 3116 013a 7ab0 7bbc 3e32 dabc 246c 473c
00000390: 91a2 14bd d790 d5bc 2b61 683d 9959 9639
000003a0: 5b57 1f3c e9cb bcbc 76a3 2bbc ee0c 75ba
000003b0: 2a52 cfbc ea00 20bd e0fa 01bd 855f 143d
000003c0: 8be5 a3bd 92a5 63be 4f0e 77bd 200d 483a
000003d0: a003 213d fc5a 873c 8da9 be3b 7147 9d3c
000003e0: af5b 52bc c81e 96bb 0782 8cbc 1e5c 8ebc
000003f0: 9950 fd3b 7d82 343d 013a 1c3c 2dbb 593a
0.01971198 -0.0052562277 -0.0037618864 -0.019634807 -0.012336322 -0.035196014 0.050761323 0.075668074
0.043344118 0.01416026 -0.008609386 -0.010541202 -0.042585723 -0.023814358 -0.054693624 -0.0014017591
0.04672031 0.050897997 0.02155863 0.004163255 -0.009711788 -0.009320097 -0.025432313 -0.02827365
-0.030106843 -0.04822981 -0.026001249 -0.005909075 -0.046111323 0.06910662 0.033158876 -0.01484621
0.056946505 0.032123834 0.03368435 -0.059698075 0.06398904 0.07857579 0.06829233 0.009594716
0.015680496 -0.0033523708 0.012520467 0.025704311 -0.008500072 0.043691203 0.04631509 0.07033447
0.023051722 -0.034453724 0.00020337306 0.018918412 -0.011401659 -0.0069704065 0.020825114 0.005081021
-0.03096225 0.003543809 -0.025394574 -0.041140128 0.018454013 0.01597945 0.014319874 0.027590755
0.004801947 -0.022329837 -0.017366786 -0.023065329 -0.07405823 0.01907431 0.07722915 0.042866603
-0.007555731 0.011685913 -0.023143765 -0.052194197 -0.033893656 -0.007576597 0.013562697 0.10048589
0.038906924 0.039404184 0.045031253 0.041533727 0.024704965 0.016327469 0.025745653 -0.01680804
-0.00953048 -0.0048563667 -0.039113175 -0.08362157 -0.06106942 -0.026085572 0.03240446 0.0176612
-0.050124153 -0.11793717 -0.085699916 -0.013747766 -0.039739065 -0.0905297 -0.013636704 0.12466761
0.080507144 0.026481664 -0.13023885 0.14614251 -0.016389946 -0.067860514 -0.051903464 0.016482329
0.0052959975 -0.064129956 -0.022367012 0.1044519 -0.06215762 -0.0127737885 -0.029340468 -0.032812163
-0.0054512112 -0.006962321 -0.016352428 0.0044391085 0.03614993 0.011318362 0.011444951 0.033169113
-0.01757904 0.029996367 0.010150331 -0.008629241 -0.028159164 -0.015525647 0.055311106 -0.070155315
-0.041158844 0.0010355033 -0.047917902 -0.03018795 -0.0032299242 0.019663112 0.015975168 0.024392534
-0.01964379 0.018727468 -0.0121449 -0.02181099 0.0149345575 -0.014219829 -0.032676235 -0.008113367
-0.017219728 -0.062418487 -0.022055965 -0.07580063 0.017069515 0.1064622 0.04951222 0.021947546
-0.029584656 0.0074730944 0.017589586 0.030229285 -0.03239777 0.03423772 0.09564132 0.0013995738
0.006189242 0.0075651426 0.023820844 -0.059272945 -0.10375927 -0.033685833 -0.015837047 0.0441404
0.0042099454 0.027339548 0.15682319 -0.022511736 0.027123993 0.018017998 -0.0026442576 0.07355109
0.031442896 0.026466405 -0.04843603 0.011058624 0.047092404 -0.03279438 -0.0075568254 -0.05614405
0.0064637973 0.049116343 -0.017080685 -0.018641887 -0.03844244 -0.028334228 0.023684943 0.0029539978
0.00020866106 0.0018280871 -0.09600263 -0.038562205 0.03704767 0.05068546 -0.05804133 0.047517546
0.049080137 0.029266477 0.02112385 -0.017751876 -0.025521068 -0.033564527 -0.033631437 -0.022556083
0.014725734 -0.019973785 -0.014216847 -0.02824304 -0.007813474 -0.02302525 -0.0024114551 0.028971743
0.0004924266 -0.0153618995 -0.026635285 0.012171779 -0.036287848 -0.026070042 0.05673329 0.00028676985
0.009725417 -0.02304645 -0.010475984 -0.0009347935 -0.025307734 -0.03906337 -0.031733394 0.036223907
-0.08002766 -0.22231129 -0.06031638 0.00076313503 0.039310098 0.016522877 0.005818552 0.019199105
-0.012839242 -0.004581306 -0.017151846 -0.01737791 0.0077305553 0.044069756 0.009535314 0.00083057844

resnet_layers.3.1.bn1.weight f4 [64]
00000000: d432 c83e a8fc df3e afc7 bf3e dd48 cc3e
00000010: 554c ae3e 4f57 b33e d90e 863e 6a97 8a3e
00000020: 6bb1 923e 468b dc3e c602 423e 4ab6 9b3e
00000030: d373 c43e d2b5 963e 7f94 573e 012b a93e
00000040: b3aa 963e e0d6 933e a0ee 523e 7ae0 ec3e
00000050: 9f19 6f3e 907e 3b3e 57d2 e53e c8e1 903e
00000060: ba84 ad3e d66c 993e 5054 b33e 4f08 8c3e
00000070: fa10 c83e 1e39 903e 70f7 863e bb78 e43e
00000080: 2c04 a83e 0954 c13e 33e8 e43e 9b87 c63e
00000090: 82d0 803e 4067 a23e 896f bb3e e517 a23e
000000a0: f875 c33e e12b a03e ecd2 683e efb5 b93e
000000b0: 8197 943e 13ca 733e fcf5 983e 00cc 7c3e
000000c0: a097 c43e 23c6 933e 49ad a33e b86c 933e
000000d0: a0bc a43e 6e66 e93e a036 b33e 7eca 773e
000000e0: 61db ad3e 9b2a b43e 038c c43e cad9 c23e
000000f0: a2d0 ce3e c4ac 903e ea3a eb3e 4f1a ab3e
0.3910128 0.4374745 0.37457034 0.3989934 0.34042612 0.3502755 0.26183203 0.27068645
0.28650984 0.43075007 0.1894637 0.30412513 0.38369617 0.29435593 0.2105274 0.33040622
0.29427108 0.28874874 0.2059884 0.46265012 0.23349617 0.18309999 0.4488704 0.28297257
0.33890325 0.29965848 0.35025263 0.2735009 0.39075452 0.28168577 0.26360655 0.4462336
0.32815683 0.37759426 0.44708404 0.38775334 0.2515908 0.31719398 0.36608532 0.31658855
0.3817594 0.31283477 0.2273671 0.36271617 0.29021838 0.23807554 0.2987517 0.24687195
0.3839693 0.28862104 0.31968144 0.28793883 0.3217516 0.4558596 0.35002613 0.24198338
0.33956435 0.35188755 0.3838807 0.38056785 0.4039355 0.2825681 0.45943385 0.3341851

resnet_layers.3.1.bn1.bias f4 [64]
00000000: 083d ccbd ed76 f3be 5afd 41bd c623 8abe
00000010: 11e3 aabd dcf7 ebbb 583e 423d cd36 d13d
00000020: 5b1d 8bbc daad 16be 9531 6c3e bc22 143e
00000030: afc7 35be c061 df3c 929e 1f3e 0a0a 3cbe
00000040: 537f fd3d bcdb 1bbe 421c 633d 7883 93be
00000050: d26f 85be cc33 6d3e d902 a6be ae23 b3bc
00000060: 5268 87be 18f2 6b3d d061 7cbe e836 453d
00000070: edb6 b4be 768e c23d e3b0 3ebe 1acb 2ebe
00000080: f084 83bc e154 85be 7804 a1be 1cbf ddbd
00000090: 190d 873d 7d24 12be 0e6d 69bd b76e f8bb
000000a0: 4ae7 99be 935b 98bd 7cd0 8bbd ab13 e2bd
000000b0: c9f1 ce3c 9461 483d 6ac9 80be e998 eb3d
000000c0: 99b3 c1be 453d ad3d e1e7 16bd 4d56 133e
000000d0: 99b5 3fbd b510 9ebe b8a7 c4bc 0a07 0f3e
000000e0: 14f2 b9bd b4c6 37be 1932 e7bd b54e a2bd
000000f0: 8fa5 18be 617d 733d acfb e2be ebb0 61bc
-0.09972578 -0.4755167 -0.047360756 -0.26980418 -0.08344091 -0.007201178 0.047422737 0.102155305
-0.016981771 -0.14714757 0.23065789 0.14466375 -0.17751954 0.02726829 0.15587834 -0.18363205
0.12377801 -0.15220541 0.05544687 -0.2881124 -0.26061875 0.2316429 -0.32424048 -0.0218676
-0.26446778 0.057603925 -0.24646688 0.048148066 -0.3529581 0.094998285 -0.18622164 -0.17069665
-0.0160546 -0.2604132 -0.31448722 -0.10827467 0.06594295 -0.14271732 -0.05698877 -0.0075815576
-0.30059272 -0.074393414 -0.068268746 -0.110389076 0.025261777 0.048921183 -0.25153667 0.11503775
-0.37832335 0.08458952 -0.03684223 0.1438839 -0.046804044 -0.3087212 -0.024005756 0.13967529
-0.09079376 -0.17946893 -0.11288852 -0.079251684 -0.14906906 0.059445743 -0.44332635 -0.013775091

resnet_layers.3.1.bn1.running_mean f4 [64]
00000000: a026 f8be 352f 1c3f 08d8 87bf 9caa eebe
00000010: 6360 ccbe 4964 94bf ee56 83be 30bf 0c3e
00000020: 81cd babe 7c5a 22bf 5297 89be 6875 bbbe
00000030: 4106 9abf 6b4a d5be 0686 d73e 9a10 6fbd
00000040: e32d 8abe 0af0 92be 9f02 b7bf dee1 c7be
00000050: 7aee 47bd 258c 66bf c5e5 a3bf ff30 cf3d
00000060: b58b 8b3c 0b08 99bf ab44 9bbf f0a4 49bf
00000070: 600c 4a3e 5af0 233d aa7d 703e baae 05c0
00000080: dbc1 1ebf 7a4e ccbd fd13 a2bf 1501 dbbf
00000090: 60d0 0a3e 4245 96bd f364 12bf 4e22 85bf
000000a0: cdfe 113f 959a 73be df82 333f 1267 92bf
000000b0: 3eaf 61bf 07e4 28bd 8fa8 3bbe c642 a23e
000000c0: b428 523f 804a 0dbf 4538 003c b22f 8bbf
000000d0: d681 7abe 3746 1bbf 1ee4 aebf 9685 c03d
000000e0: d0e1 27bf 29d5 19bf badd 46be 261c bdbf
000000f0: f476 60bf 7eb7 1c3e 931f a83e fd02 44bf
-0.4846697 0.6100953 -1.0612803 -0.4661454 -0.39917287 -1.1593105 -0.2565226 0.13744807
-0.36484912 -0.6341932 -0.2687326 -0.3661301 -1.2033159 -0.4165834 0.4209444 -0.05836544
-0.26988134 -0.2869876 -1.4297675 -0.3903951 -0.048811413 -0.90057594 -1.2804495 0.10116767
0.017034391 -1.195558 -1.2130331 -0.787673 0.19731283 0.04002414 0.23485437 -2.0887895
-0.6201455 -0.09975906 -1.266235 -1.7109705 0.13556051 -0.07337429 -0.57185286 -1.0401094
0.5702942 -0.23789437 0.7012157 -1.1437705 -0.88158023 -0.04123309 -0.18326019 0.3169157
0.8209336 -0.551918 0.007825916 -1.087393 -0.24463591 -0.60654014 -1.3663366 0.094004795
-0.6557894 -0.6009088 -0.1942052 -1.4774215 -0.8768151 0.15304372 0.3283659 -0.7656706

resnet_layers.3.1.bn1.running_var f4 [64]
00000000: 1729 583f b6a4 ee3e 6113 543f cd22 413e
00000010: 710d bb3d 0475 e33e 0fba c13e 98b9 033f
00000020: 7c59 993e ffec fb3e 3a75 053e c528 183f
00000030: c863 863e 20ab 1f3e 78f9 2d3e 6e06 db3e
00000040: 9779 0c3f 864c c63e 74ad 3f3e 1e41 dd3e
00000050: dd23 a33d 28b6 343e c611 cb3e c60f 043e
00000060: 2baf 0d3e 1cd5 863e 9fc4 8e3e 7b6b 9e3e
00000070: 85c5 fe3e ff6e 093f 89f7 c73d e291 723e
00000080: 4f45 af3e 9b60 df3d 7ee2 443e 52cc c33e
00000090: b8a1 e23e fb5f 503e 0ba0 943e 40c1 953e
000000a0: c824 0a3e caae 213e cd2f ad3e 8c27 3a3f
000000b0: ade1 833e 859d b23d 4b72 d53e 78f9 e23e
000000c0: 1b90 423e 27c6 e13e c662 bc3e 844e 823e
000000d0: c04e 133f 04e1 993e 55da fe3e 01af 143f
000000e0: d843 383e d97c 633e 3bb3 283f cc6d ac3e
000000f0: cb3c 033f 6d36 b03e 2446 3f3e 500d df3e
0.844377 0.4661004 0.8284207 0.18860932 0.09133423 0.44425213 0.37837264 0.5145507
0.29951084 0.4920425 0.13033 0.5943721 0.26248002 0.15592623 0.16989696 0.42778343
0.5487303 0.38730258 0.18718511 0.43213743 0.07965825 0.17647612 0.39661998 0.12896642
0.13836353 0.26334465 0.27884385 0.30941376 0.4976007 0.5368499 0.097640105 0.23688462
0.34232566 0.10907098 0.19227025 0.38241822 0.44264007 0.20349114 0.29028353 0.29249
0.13490593 0.15789333 0.33825532 0.72716594 0.25758114 0.08721451 0.4168876 0.44330955
0.19000284 0.4409649 0.36794108 0.25450528 0.5754204 0.30054486 0.4977595 0.58079535
0.1799463 0.22215594 0.65898484 0.33677518 0.5126464 0.34416524 0.186791 0.43564844
